…
Epoch [497 / 500] average loss generator vs. discrim.: 9.249530 vs. 0.000170
[32mValid Score Improved (0.0002 ---> 0.0002)
[32mModel Saved
Epoch [498 / 500] average loss generator vs. discrim.: 9.289022 vs. 0.000192
[32mValid Score Improved (0.0002 ---> 0.0002)
[32mModel Saved
Epoch [499 / 500] average loss generator vs. discrim.: 9.082743 vs. 0.000196
[32mValid Score Improved (0.0002 ---> 0.0002)
[32mModel Saved
Epoch [500 / 500] average loss generator vs. discrim.: 9.124166 vs. 0.000219
Training complete in 0h 5m 11s
Best Score: 0.0002
Number of parameters for generator: 3577667 and discriminator: 2766529
Generator(
  (deconv1): ConvTranspose2d(100, 512, kernel_size=(4, 4), stride=(1, 1))
  (deconv1_bn): BatchNorm2d(512, eps=1e-05, momentum=0.1, affine=True, track_running_stats=True)
  (deconv2): ConvTranspose2d(512, 256, kernel_size=(4, 4), stride=(2, 2), padding=(1, 1))
  (deconv2_bn): BatchNorm2d(256, eps=1e-05, momentum=0.1, affine=True, track_running_stats=True)
  (deconv3): ConvTranspose2d(256, 128, kernel_size=(4, 4), stride=(2, 2), padding=(1, 1))
  (deconv3_bn): BatchNorm2d(128, eps=1e-05, momentum=0.1, affine=True, track_running_stats=True)
  (deconv4): ConvTranspose2d(128, 64, kernel_size=(4, 4), stride=(2, 2), padding=(1, 1))
  (deconv4_bn): BatchNorm2d(64, eps=1e-05, momentum=0.1, affine=True, track_running_stats=True)
  (deconv5): ConvTranspose2d(64, 3, kernel_size=(4, 4), stride=(2, 2), padding=(1, 1))
)
Discriminator(
  (conv1): Conv2d(3, 64, kernel_size=(4, 4), stride=(2, 2), padding=(1, 1))
  (conv2): Conv2d(64, 128, kernel_size=(4, 4), stride=(2, 2), padding=(1, 1))
  (conv2_bn): BatchNorm2d(128, eps=1e-05, momentum=0.1, affine=True, track_running_stats=True)
  (conv3): Conv2d(128, 256, kernel_size=(4, 4), stride=(2, 2), padding=(1, 1))
  (conv3_bn): BatchNorm2d(256, eps=1e-05, momentum=0.1, affine=True, track_running_stats=True)
  (conv4): Conv2d(256, 512, kernel_size=(4, 4), stride=(2, 2), padding=(1, 1))
  (conv4_bn): BatchNorm2d(512, eps=1e-05, momentum=0.1, affine=True, track_running_stats=True)
  (conv5): Conv2d(512, 1, kernel_size=(4, 4), stride=(1, 1))
)